{"format": "layers-model", "generatedBy": "keras v2.2.4-tf", "convertedBy": "TensorFlow.js Converter v1.6.0", "modelTopology": {"keras_version": "2.2.4-tf", "backend": "tensorflow", "model_config": {"class_name": "Model", "config": {"name": "model", "layers": [{"class_name": "InputLayer", "config": {"batch_input_shape": [null, null], "dtype": "float32", "sparse": false, "ragged": false, "name": "audio"}, "name": "audio", "inbound_nodes": []}, {"class_name": "Spectrogram", "config": {"frame_length": 512, "frame_step": 448}, "name": "spectrogram", "inbound_nodes": [[["audio", 0, 0, {}]]]}, {"class_name": "Dropout", "config": {"name": "dropout", "trainable": true, "dtype": "float32", "rate": 0.25, "noise_shape": null, "seed": null}, "name": "dropout", "inbound_nodes": [[["spectrogram", 0, 0, {}]]]}, {"class_name": "Conv1D", "config": {"name": "conv1d", "trainable": true, "dtype": "float32", "filters": 64, "kernel_size": [7], "strides": [2], "padding": "valid", "data_format": "channels_last", "dilation_rate": [1], "activation": "linear", "use_bias": true, "kernel_initializer": {"class_name": "GlorotUniform", "config": {"seed": null}}, "bias_initializer": {"class_name": "Zeros", "config": {}}, "kernel_regularizer": null, "bias_regularizer": null, "activity_regularizer": null, "kernel_constraint": null, "bias_constraint": null}, "name": "conv1d", "inbound_nodes": [[["dropout", 0, 0, {}]]]}, {"class_name": "BatchNormalization", "config": {"name": "batch_normalization", "trainable": true, "dtype": "float32", "axis": [2], "momentum": 0.99, "epsilon": 0.001, "center": true, "scale": true, "beta_initializer": {"class_name": "Zeros", "config": {}}, "gamma_initializer": {"class_name": "Ones", "config": {}}, "moving_mean_initializer": {"class_name": "Zeros", "config": {}}, "moving_variance_initializer": {"class_name": "Ones", "config": {}}, "beta_regularizer": null, "gamma_regularizer": null, "beta_constraint": null, "gamma_constraint": null}, "name": "batch_normalization", "inbound_nodes": [[["conv1d", 0, 0, {}]]]}, {"class_name": "ReLU", "config": {"name": "re_lu", "trainable": true, "dtype": "float32", "max_value": null, "negative_slope": 0.0, "threshold": 0.0}, "name": "re_lu", "inbound_nodes": [[["batch_normalization", 0, 0, {}]]]}, {"class_name": "MaxPooling1D", "config": {"name": "max_pooling1d", "trainable": true, "dtype": "float32", "strides": [2], "pool_size": [3], "padding": "valid", "data_format": "channels_last"}, "name": "max_pooling1d", "inbound_nodes": [[["re_lu", 0, 0, {}]]]}, {"class_name": "Dropout", "config": {"name": "dropout_1", "trainable": true, "dtype": "float32", "rate": 0.25, "noise_shape": null, "seed": null}, "name": "dropout_1", "inbound_nodes": [[["max_pooling1d", 0, 0, {}]]]}, {"class_name": "Conv1D", "config": {"name": "conv1d_1", "trainable": true, "dtype": "float32", "filters": 16, "kernel_size": [1], "strides": [2], "padding": "valid", "data_format": "channels_last", "dilation_rate": [1], "activation": "linear", "use_bias": true, "kernel_initializer": {"class_name": "GlorotUniform", "config": {"seed": null}}, "bias_initializer": {"class_name": "Zeros", "config": {}}, "kernel_regularizer": null, "bias_regularizer": null, "activity_regularizer": null, "kernel_constraint": null, "bias_constraint": null}, "name": "conv1d_1", "inbound_nodes": [[["dropout_1", 0, 0, {}]]]}, {"class_name": "BatchNormalization", "config": {"name": "batch_normalization_1", "trainable": true, "dtype": "float32", "axis": [2], "momentum": 0.99, "epsilon": 0.001, "center": true, "scale": true, "beta_initializer": {"class_name": "Zeros", "config": {}}, "gamma_initializer": {"class_name": "Ones", "config": {}}, "moving_mean_initializer": {"class_name": "Zeros", "config": {}}, "moving_variance_initializer": {"class_name": "Ones", "config": {}}, "beta_regularizer": null, "gamma_regularizer": null, "beta_constraint": null, "gamma_constraint": null}, "name": "batch_normalization_1", "inbound_nodes": [[["conv1d_1", 0, 0, {}]]]}, {"class_name": "ReLU", "config": {"name": "re_lu_1", "trainable": true, "dtype": "float32", "max_value": null, "negative_slope": 0.0, "threshold": 0.0}, "name": "re_lu_1", "inbound_nodes": [[["batch_normalization_1", 0, 0, {}]]]}, {"class_name": "Conv1D", "config": {"name": "conv1d_2", "trainable": true, "dtype": "float32", "filters": 16, "kernel_size": [3], "strides": [1], "padding": "same", "data_format": "channels_last", "dilation_rate": [1], "activation": "linear", "use_bias": true, "kernel_initializer": {"class_name": "GlorotUniform", "config": {"seed": null}}, "bias_initializer": {"class_name": "Zeros", "config": {}}, "kernel_regularizer": null, "bias_regularizer": null, "activity_regularizer": null, "kernel_constraint": null, "bias_constraint": null}, "name": "conv1d_2", "inbound_nodes": [[["re_lu_1", 0, 0, {}]]]}, {"class_name": "BatchNormalization", "config": {"name": "batch_normalization_2", "trainable": true, "dtype": "float32", "axis": [2], "momentum": 0.99, "epsilon": 0.001, "center": true, "scale": true, "beta_initializer": {"class_name": "Zeros", "config": {}}, "gamma_initializer": {"class_name": "Ones", "config": {}}, "moving_mean_initializer": {"class_name": "Zeros", "config": {}}, "moving_variance_initializer": {"class_name": "Ones", "config": {}}, "beta_regularizer": null, "gamma_regularizer": null, "beta_constraint": null, "gamma_constraint": null}, "name": "batch_normalization_2", "inbound_nodes": [[["conv1d_2", 0, 0, {}]]]}, {"class_name": "ReLU", "config": {"name": "re_lu_2", "trainable": true, "dtype": "float32", "max_value": null, "negative_slope": 0.0, "threshold": 0.0}, "name": "re_lu_2", "inbound_nodes": [[["batch_normalization_2", 0, 0, {}]]]}, {"class_name": "Conv1D", "config": {"name": "conv1d_3", "trainable": true, "dtype": "float32", "filters": 32, "kernel_size": [1], "strides": [1], "padding": "valid", "data_format": "channels_last", "dilation_rate": [1], "activation": "linear", "use_bias": true, "kernel_initializer": {"class_name": "GlorotUniform", "config": {"seed": null}}, "bias_initializer": {"class_name": "Zeros", "config": {}}, "kernel_regularizer": null, "bias_regularizer": null, "activity_regularizer": null, "kernel_constraint": null, "bias_constraint": null}, "name": "conv1d_3", "inbound_nodes": [[["re_lu_2", 0, 0, {}]]]}, {"class_name": "Conv1D", "config": {"name": "conv1d_4", "trainable": true, "dtype": "float32", "filters": 32, "kernel_size": [1], "strides": [2], "padding": "valid", "data_format": "channels_last", "dilation_rate": [1], "activation": "linear", "use_bias": true, "kernel_initializer": {"class_name": "GlorotUniform", "config": {"seed": null}}, "bias_initializer": {"class_name": "Zeros", "config": {}}, "kernel_regularizer": null, "bias_regularizer": null, "activity_regularizer": null, "kernel_constraint": null, "bias_constraint": null}, "name": "conv1d_4", "inbound_nodes": [[["dropout_1", 0, 0, {}]]]}, {"class_name": "BatchNormalization", "config": {"name": "batch_normalization_3", "trainable": true, "dtype": "float32", "axis": [2], "momentum": 0.99, "epsilon": 0.001, "center": true, "scale": true, "beta_initializer": {"class_name": "Zeros", "config": {}}, "gamma_initializer": {"class_name": "Ones", "config": {}}, "moving_mean_initializer": {"class_name": "Zeros", "config": {}}, "moving_variance_initializer": {"class_name": "Ones", "config": {}}, "beta_regularizer": null, "gamma_regularizer": null, "beta_constraint": null, "gamma_constraint": null}, "name": "batch_normalization_3", "inbound_nodes": [[["conv1d_3", 0, 0, {}]]]}, {"class_name": "BatchNormalization", "config": {"name": "batch_normalization_4", "trainable": true, "dtype": "float32", "axis": [2], "momentum": 0.99, "epsilon": 0.001, "center": true, "scale": true, "beta_initializer": {"class_name": "Zeros", "config": {}}, "gamma_initializer": {"class_name": "Ones", "config": {}}, "moving_mean_initializer": {"class_name": "Zeros", "config": {}}, "moving_variance_initializer": {"class_name": "Ones", "config": {}}, "beta_regularizer": null, "gamma_regularizer": null, "beta_constraint": null, "gamma_constraint": null}, "name": "batch_normalization_4", "inbound_nodes": [[["conv1d_4", 0, 0, {}]]]}, {"class_name": "Add", "config": {"name": "add", "trainable": true, "dtype": "float32"}, "name": "add", "inbound_nodes": [[["batch_normalization_3", 0, 0, {}], ["batch_normalization_4", 0, 0, {}]]]}, {"class_name": "ReLU", "config": {"name": "re_lu_3", "trainable": true, "dtype": "float32", "max_value": null, "negative_slope": 0.0, "threshold": 0.0}, "name": "re_lu_3", "inbound_nodes": [[["add", 0, 0, {}]]]}, {"class_name": "Conv1D", "config": {"name": "conv1d_5", "trainable": true, "dtype": "float32", "filters": 16, "kernel_size": [1], "strides": [1], "padding": "valid", "data_format": "channels_last", "dilation_rate": [1], "activation": "linear", "use_bias": true, "kernel_initializer": {"class_name": "GlorotUniform", "config": {"seed": null}}, "bias_initializer": {"class_name": "Zeros", "config": {}}, "kernel_regularizer": null, "bias_regularizer": null, "activity_regularizer": null, "kernel_constraint": null, "bias_constraint": null}, "name": "conv1d_5", "inbound_nodes": [[["re_lu_3", 0, 0, {}]]]}, {"class_name": "BatchNormalization", "config": {"name": "batch_normalization_5", "trainable": true, "dtype": "float32", "axis": [2], "momentum": 0.99, "epsilon": 0.001, "center": true, "scale": true, "beta_initializer": {"class_name": "Zeros", "config": {}}, "gamma_initializer": {"class_name": "Ones", "config": {}}, "moving_mean_initializer": {"class_name": "Zeros", "config": {}}, "moving_variance_initializer": {"class_name": "Ones", "config": {}}, "beta_regularizer": null, "gamma_regularizer": null, "beta_constraint": null, "gamma_constraint": null}, "name": "batch_normalization_5", "inbound_nodes": [[["conv1d_5", 0, 0, {}]]]}, {"class_name": "ReLU", "config": {"name": "re_lu_4", "trainable": true, "dtype": "float32", "max_value": null, "negative_slope": 0.0, "threshold": 0.0}, "name": "re_lu_4", "inbound_nodes": [[["batch_normalization_5", 0, 0, {}]]]}, {"class_name": "Conv1D", "config": {"name": "conv1d_6", "trainable": true, "dtype": "float32", "filters": 16, "kernel_size": [3], "strides": [1], "padding": "same", "data_format": "channels_last", "dilation_rate": [1], "activation": "linear", "use_bias": true, "kernel_initializer": {"class_name": "GlorotUniform", "config": {"seed": null}}, "bias_initializer": {"class_name": "Zeros", "config": {}}, "kernel_regularizer": null, "bias_regularizer": null, "activity_regularizer": null, "kernel_constraint": null, "bias_constraint": null}, "name": "conv1d_6", "inbound_nodes": [[["re_lu_4", 0, 0, {}]]]}, {"class_name": "BatchNormalization", "config": {"name": "batch_normalization_6", "trainable": true, "dtype": "float32", "axis": [2], "momentum": 0.99, "epsilon": 0.001, "center": true, "scale": true, "beta_initializer": {"class_name": "Zeros", "config": {}}, "gamma_initializer": {"class_name": "Ones", "config": {}}, "moving_mean_initializer": {"class_name": "Zeros", "config": {}}, "moving_variance_initializer": {"class_name": "Ones", "config": {}}, "beta_regularizer": null, "gamma_regularizer": null, "beta_constraint": null, "gamma_constraint": null}, "name": "batch_normalization_6", "inbound_nodes": [[["conv1d_6", 0, 0, {}]]]}, {"class_name": "ReLU", "config": {"name": "re_lu_5", "trainable": true, "dtype": "float32", "max_value": null, "negative_slope": 0.0, "threshold": 0.0}, "name": "re_lu_5", "inbound_nodes": [[["batch_normalization_6", 0, 0, {}]]]}, {"class_name": "Conv1D", "config": {"name": "conv1d_7", "trainable": true, "dtype": "float32", "filters": 32, "kernel_size": [1], "strides": [1], "padding": "valid", "data_format": "channels_last", "dilation_rate": [1], "activation": "linear", "use_bias": true, "kernel_initializer": {"class_name": "GlorotUniform", "config": {"seed": null}}, "bias_initializer": {"class_name": "Zeros", "config": {}}, "kernel_regularizer": null, "bias_regularizer": null, "activity_regularizer": null, "kernel_constraint": null, "bias_constraint": null}, "name": "conv1d_7", "inbound_nodes": [[["re_lu_5", 0, 0, {}]]]}, {"class_name": "BatchNormalization", "config": {"name": "batch_normalization_7", "trainable": true, "dtype": "float32", "axis": [2], "momentum": 0.99, "epsilon": 0.001, "center": true, "scale": true, "beta_initializer": {"class_name": "Zeros", "config": {}}, "gamma_initializer": {"class_name": "Ones", "config": {}}, "moving_mean_initializer": {"class_name": "Zeros", "config": {}}, "moving_variance_initializer": {"class_name": "Ones", "config": {}}, "beta_regularizer": null, "gamma_regularizer": null, "beta_constraint": null, "gamma_constraint": null}, "name": "batch_normalization_7", "inbound_nodes": [[["conv1d_7", 0, 0, {}]]]}, {"class_name": "Add", "config": {"name": "add_1", "trainable": true, "dtype": "float32"}, "name": "add_1", "inbound_nodes": [[["batch_normalization_7", 0, 0, {}], ["re_lu_3", 0, 0, {}]]]}, {"class_name": "ReLU", "config": {"name": "re_lu_6", "trainable": true, "dtype": "float32", "max_value": null, "negative_slope": 0.0, "threshold": 0.0}, "name": "re_lu_6", "inbound_nodes": [[["add_1", 0, 0, {}]]]}, {"class_name": "Conv1D", "config": {"name": "conv1d_8", "trainable": true, "dtype": "float32", "filters": 16, "kernel_size": [1], "strides": [1], "padding": "valid", "data_format": "channels_last", "dilation_rate": [1], "activation": "linear", "use_bias": true, "kernel_initializer": {"class_name": "GlorotUniform", "config": {"seed": null}}, "bias_initializer": {"class_name": "Zeros", "config": {}}, "kernel_regularizer": null, "bias_regularizer": null, "activity_regularizer": null, "kernel_constraint": null, "bias_constraint": null}, "name": "conv1d_8", "inbound_nodes": [[["re_lu_6", 0, 0, {}]]]}, {"class_name": "BatchNormalization", "config": {"name": "batch_normalization_8", "trainable": true, "dtype": "float32", "axis": [2], "momentum": 0.99, "epsilon": 0.001, "center": true, "scale": true, "beta_initializer": {"class_name": "Zeros", "config": {}}, "gamma_initializer": {"class_name": "Ones", "config": {}}, "moving_mean_initializer": {"class_name": "Zeros", "config": {}}, "moving_variance_initializer": {"class_name": "Ones", "config": {}}, "beta_regularizer": null, "gamma_regularizer": null, "beta_constraint": null, "gamma_constraint": null}, "name": "batch_normalization_8", "inbound_nodes": [[["conv1d_8", 0, 0, {}]]]}, {"class_name": "ReLU", "config": {"name": "re_lu_7", "trainable": true, "dtype": "float32", "max_value": null, "negative_slope": 0.0, "threshold": 0.0}, "name": "re_lu_7", "inbound_nodes": [[["batch_normalization_8", 0, 0, {}]]]}, {"class_name": "Conv1D", "config": {"name": "conv1d_9", "trainable": true, "dtype": "float32", "filters": 16, "kernel_size": [3], "strides": [1], "padding": "same", "data_format": "channels_last", "dilation_rate": [1], "activation": "linear", "use_bias": true, "kernel_initializer": {"class_name": "GlorotUniform", "config": {"seed": null}}, "bias_initializer": {"class_name": "Zeros", "config": {}}, "kernel_regularizer": null, "bias_regularizer": null, "activity_regularizer": null, "kernel_constraint": null, "bias_constraint": null}, "name": "conv1d_9", "inbound_nodes": [[["re_lu_7", 0, 0, {}]]]}, {"class_name": "BatchNormalization", "config": {"name": "batch_normalization_9", "trainable": true, "dtype": "float32", "axis": [2], "momentum": 0.99, "epsilon": 0.001, "center": true, "scale": true, "beta_initializer": {"class_name": "Zeros", "config": {}}, "gamma_initializer": {"class_name": "Ones", "config": {}}, "moving_mean_initializer": {"class_name": "Zeros", "config": {}}, "moving_variance_initializer": {"class_name": "Ones", "config": {}}, "beta_regularizer": null, "gamma_regularizer": null, "beta_constraint": null, "gamma_constraint": null}, "name": "batch_normalization_9", "inbound_nodes": [[["conv1d_9", 0, 0, {}]]]}, {"class_name": "ReLU", "config": {"name": "re_lu_8", "trainable": true, "dtype": "float32", "max_value": null, "negative_slope": 0.0, "threshold": 0.0}, "name": "re_lu_8", "inbound_nodes": [[["batch_normalization_9", 0, 0, {}]]]}, {"class_name": "Conv1D", "config": {"name": "conv1d_10", "trainable": true, "dtype": "float32", "filters": 32, "kernel_size": [1], "strides": [1], "padding": "valid", "data_format": "channels_last", "dilation_rate": [1], "activation": "linear", "use_bias": true, "kernel_initializer": {"class_name": "GlorotUniform", "config": {"seed": null}}, "bias_initializer": {"class_name": "Zeros", "config": {}}, "kernel_regularizer": null, "bias_regularizer": null, "activity_regularizer": null, "kernel_constraint": null, "bias_constraint": null}, "name": "conv1d_10", "inbound_nodes": [[["re_lu_8", 0, 0, {}]]]}, {"class_name": "BatchNormalization", "config": {"name": "batch_normalization_10", "trainable": true, "dtype": "float32", "axis": [2], "momentum": 0.99, "epsilon": 0.001, "center": true, "scale": true, "beta_initializer": {"class_name": "Zeros", "config": {}}, "gamma_initializer": {"class_name": "Ones", "config": {}}, "moving_mean_initializer": {"class_name": "Zeros", "config": {}}, "moving_variance_initializer": {"class_name": "Ones", "config": {}}, "beta_regularizer": null, "gamma_regularizer": null, "beta_constraint": null, "gamma_constraint": null}, "name": "batch_normalization_10", "inbound_nodes": [[["conv1d_10", 0, 0, {}]]]}, {"class_name": "Add", "config": {"name": "add_2", "trainable": true, "dtype": "float32"}, "name": "add_2", "inbound_nodes": [[["batch_normalization_10", 0, 0, {}], ["re_lu_6", 0, 0, {}]]]}, {"class_name": "ReLU", "config": {"name": "re_lu_9", "trainable": true, "dtype": "float32", "max_value": null, "negative_slope": 0.0, "threshold": 0.0}, "name": "re_lu_9", "inbound_nodes": [[["add_2", 0, 0, {}]]]}, {"class_name": "Conv1D", "config": {"name": "conv1d_11", "trainable": true, "dtype": "float32", "filters": 16, "kernel_size": [1], "strides": [1], "padding": "valid", "data_format": "channels_last", "dilation_rate": [1], "activation": "linear", "use_bias": true, "kernel_initializer": {"class_name": "GlorotUniform", "config": {"seed": null}}, "bias_initializer": {"class_name": "Zeros", "config": {}}, "kernel_regularizer": null, "bias_regularizer": null, "activity_regularizer": null, "kernel_constraint": null, "bias_constraint": null}, "name": "conv1d_11", "inbound_nodes": [[["re_lu_9", 0, 0, {}]]]}, {"class_name": "BatchNormalization", "config": {"name": "batch_normalization_11", "trainable": true, "dtype": "float32", "axis": [2], "momentum": 0.99, "epsilon": 0.001, "center": true, "scale": true, "beta_initializer": {"class_name": "Zeros", "config": {}}, "gamma_initializer": {"class_name": "Ones", "config": {}}, "moving_mean_initializer": {"class_name": "Zeros", "config": {}}, "moving_variance_initializer": {"class_name": "Ones", "config": {}}, "beta_regularizer": null, "gamma_regularizer": null, "beta_constraint": null, "gamma_constraint": null}, "name": "batch_normalization_11", "inbound_nodes": [[["conv1d_11", 0, 0, {}]]]}, {"class_name": "ReLU", "config": {"name": "re_lu_10", "trainable": true, "dtype": "float32", "max_value": null, "negative_slope": 0.0, "threshold": 0.0}, "name": "re_lu_10", "inbound_nodes": [[["batch_normalization_11", 0, 0, {}]]]}, {"class_name": "Conv1D", "config": {"name": "conv1d_12", "trainable": true, "dtype": "float32", "filters": 16, "kernel_size": [3], "strides": [1], "padding": "same", "data_format": "channels_last", "dilation_rate": [1], "activation": "linear", "use_bias": true, "kernel_initializer": {"class_name": "GlorotUniform", "config": {"seed": null}}, "bias_initializer": {"class_name": "Zeros", "config": {}}, "kernel_regularizer": null, "bias_regularizer": null, "activity_regularizer": null, "kernel_constraint": null, "bias_constraint": null}, "name": "conv1d_12", "inbound_nodes": [[["re_lu_10", 0, 0, {}]]]}, {"class_name": "BatchNormalization", "config": {"name": "batch_normalization_12", "trainable": true, "dtype": "float32", "axis": [2], "momentum": 0.99, "epsilon": 0.001, "center": true, "scale": true, "beta_initializer": {"class_name": "Zeros", "config": {}}, "gamma_initializer": {"class_name": "Ones", "config": {}}, "moving_mean_initializer": {"class_name": "Zeros", "config": {}}, "moving_variance_initializer": {"class_name": "Ones", "config": {}}, "beta_regularizer": null, "gamma_regularizer": null, "beta_constraint": null, "gamma_constraint": null}, "name": "batch_normalization_12", "inbound_nodes": [[["conv1d_12", 0, 0, {}]]]}, {"class_name": "ReLU", "config": {"name": "re_lu_11", "trainable": true, "dtype": "float32", "max_value": null, "negative_slope": 0.0, "threshold": 0.0}, "name": "re_lu_11", "inbound_nodes": [[["batch_normalization_12", 0, 0, {}]]]}, {"class_name": "Conv1D", "config": {"name": "conv1d_13", "trainable": true, "dtype": "float32", "filters": 32, "kernel_size": [1], "strides": [1], "padding": "valid", "data_format": "channels_last", "dilation_rate": [1], "activation": "linear", "use_bias": true, "kernel_initializer": {"class_name": "GlorotUniform", "config": {"seed": null}}, "bias_initializer": {"class_name": "Zeros", "config": {}}, "kernel_regularizer": null, "bias_regularizer": null, "activity_regularizer": null, "kernel_constraint": null, "bias_constraint": null}, "name": "conv1d_13", "inbound_nodes": [[["re_lu_11", 0, 0, {}]]]}, {"class_name": "BatchNormalization", "config": {"name": "batch_normalization_13", "trainable": true, "dtype": "float32", "axis": [2], "momentum": 0.99, "epsilon": 0.001, "center": true, "scale": true, "beta_initializer": {"class_name": "Zeros", "config": {}}, "gamma_initializer": {"class_name": "Ones", "config": {}}, "moving_mean_initializer": {"class_name": "Zeros", "config": {}}, "moving_variance_initializer": {"class_name": "Ones", "config": {}}, "beta_regularizer": null, "gamma_regularizer": null, "beta_constraint": null, "gamma_constraint": null}, "name": "batch_normalization_13", "inbound_nodes": [[["conv1d_13", 0, 0, {}]]]}, {"class_name": "Add", "config": {"name": "add_3", "trainable": true, "dtype": "float32"}, "name": "add_3", "inbound_nodes": [[["batch_normalization_13", 0, 0, {}], ["re_lu_9", 0, 0, {}]]]}, {"class_name": "ReLU", "config": {"name": "re_lu_12", "trainable": true, "dtype": "float32", "max_value": null, "negative_slope": 0.0, "threshold": 0.0}, "name": "re_lu_12", "inbound_nodes": [[["add_3", 0, 0, {}]]]}, {"class_name": "Dropout", "config": {"name": "dropout_2", "trainable": true, "dtype": "float32", "rate": 0.25, "noise_shape": null, "seed": null}, "name": "dropout_2", "inbound_nodes": [[["re_lu_12", 0, 0, {}]]]}, {"class_name": "Conv1D", "config": {"name": "conv1d_14", "trainable": true, "dtype": "float32", "filters": 32, "kernel_size": [1], "strides": [2], "padding": "valid", "data_format": "channels_last", "dilation_rate": [1], "activation": "linear", "use_bias": true, "kernel_initializer": {"class_name": "GlorotUniform", "config": {"seed": null}}, "bias_initializer": {"class_name": "Zeros", "config": {}}, "kernel_regularizer": null, "bias_regularizer": null, "activity_regularizer": null, "kernel_constraint": null, "bias_constraint": null}, "name": "conv1d_14", "inbound_nodes": [[["dropout_2", 0, 0, {}]]]}, {"class_name": "BatchNormalization", "config": {"name": "batch_normalization_14", "trainable": true, "dtype": "float32", "axis": [2], "momentum": 0.99, "epsilon": 0.001, "center": true, "scale": true, "beta_initializer": {"class_name": "Zeros", "config": {}}, "gamma_initializer": {"class_name": "Ones", "config": {}}, "moving_mean_initializer": {"class_name": "Zeros", "config": {}}, "moving_variance_initializer": {"class_name": "Ones", "config": {}}, "beta_regularizer": null, "gamma_regularizer": null, "beta_constraint": null, "gamma_constraint": null}, "name": "batch_normalization_14", "inbound_nodes": [[["conv1d_14", 0, 0, {}]]]}, {"class_name": "ReLU", "config": {"name": "re_lu_13", "trainable": true, "dtype": "float32", "max_value": null, "negative_slope": 0.0, "threshold": 0.0}, "name": "re_lu_13", "inbound_nodes": [[["batch_normalization_14", 0, 0, {}]]]}, {"class_name": "Conv1D", "config": {"name": "conv1d_15", "trainable": true, "dtype": "float32", "filters": 32, "kernel_size": [3], "strides": [1], "padding": "same", "data_format": "channels_last", "dilation_rate": [1], "activation": "linear", "use_bias": true, "kernel_initializer": {"class_name": "GlorotUniform", "config": {"seed": null}}, "bias_initializer": {"class_name": "Zeros", "config": {}}, "kernel_regularizer": null, "bias_regularizer": null, "activity_regularizer": null, "kernel_constraint": null, "bias_constraint": null}, "name": "conv1d_15", "inbound_nodes": [[["re_lu_13", 0, 0, {}]]]}, {"class_name": "BatchNormalization", "config": {"name": "batch_normalization_15", "trainable": true, "dtype": "float32", "axis": [2], "momentum": 0.99, "epsilon": 0.001, "center": true, "scale": true, "beta_initializer": {"class_name": "Zeros", "config": {}}, "gamma_initializer": {"class_name": "Ones", "config": {}}, "moving_mean_initializer": {"class_name": "Zeros", "config": {}}, "moving_variance_initializer": {"class_name": "Ones", "config": {}}, "beta_regularizer": null, "gamma_regularizer": null, "beta_constraint": null, "gamma_constraint": null}, "name": "batch_normalization_15", "inbound_nodes": [[["conv1d_15", 0, 0, {}]]]}, {"class_name": "ReLU", "config": {"name": "re_lu_14", "trainable": true, "dtype": "float32", "max_value": null, "negative_slope": 0.0, "threshold": 0.0}, "name": "re_lu_14", "inbound_nodes": [[["batch_normalization_15", 0, 0, {}]]]}, {"class_name": "Conv1D", "config": {"name": "conv1d_16", "trainable": true, "dtype": "float32", "filters": 64, "kernel_size": [1], "strides": [1], "padding": "valid", "data_format": "channels_last", "dilation_rate": [1], "activation": "linear", "use_bias": true, "kernel_initializer": {"class_name": "GlorotUniform", "config": {"seed": null}}, "bias_initializer": {"class_name": "Zeros", "config": {}}, "kernel_regularizer": null, "bias_regularizer": null, "activity_regularizer": null, "kernel_constraint": null, "bias_constraint": null}, "name": "conv1d_16", "inbound_nodes": [[["re_lu_14", 0, 0, {}]]]}, {"class_name": "Conv1D", "config": {"name": "conv1d_17", "trainable": true, "dtype": "float32", "filters": 64, "kernel_size": [1], "strides": [2], "padding": "valid", "data_format": "channels_last", "dilation_rate": [1], "activation": "linear", "use_bias": true, "kernel_initializer": {"class_name": "GlorotUniform", "config": {"seed": null}}, "bias_initializer": {"class_name": "Zeros", "config": {}}, "kernel_regularizer": null, "bias_regularizer": null, "activity_regularizer": null, "kernel_constraint": null, "bias_constraint": null}, "name": "conv1d_17", "inbound_nodes": [[["dropout_2", 0, 0, {}]]]}, {"class_name": "BatchNormalization", "config": {"name": "batch_normalization_16", "trainable": true, "dtype": "float32", "axis": [2], "momentum": 0.99, "epsilon": 0.001, "center": true, "scale": true, "beta_initializer": {"class_name": "Zeros", "config": {}}, "gamma_initializer": {"class_name": "Ones", "config": {}}, "moving_mean_initializer": {"class_name": "Zeros", "config": {}}, "moving_variance_initializer": {"class_name": "Ones", "config": {}}, "beta_regularizer": null, "gamma_regularizer": null, "beta_constraint": null, "gamma_constraint": null}, "name": "batch_normalization_16", "inbound_nodes": [[["conv1d_16", 0, 0, {}]]]}, {"class_name": "BatchNormalization", "config": {"name": "batch_normalization_17", "trainable": true, "dtype": "float32", "axis": [2], "momentum": 0.99, "epsilon": 0.001, "center": true, "scale": true, "beta_initializer": {"class_name": "Zeros", "config": {}}, "gamma_initializer": {"class_name": "Ones", "config": {}}, "moving_mean_initializer": {"class_name": "Zeros", "config": {}}, "moving_variance_initializer": {"class_name": "Ones", "config": {}}, "beta_regularizer": null, "gamma_regularizer": null, "beta_constraint": null, "gamma_constraint": null}, "name": "batch_normalization_17", "inbound_nodes": [[["conv1d_17", 0, 0, {}]]]}, {"class_name": "Add", "config": {"name": "add_4", "trainable": true, "dtype": "float32"}, "name": "add_4", "inbound_nodes": [[["batch_normalization_16", 0, 0, {}], ["batch_normalization_17", 0, 0, {}]]]}, {"class_name": "ReLU", "config": {"name": "re_lu_15", "trainable": true, "dtype": "float32", "max_value": null, "negative_slope": 0.0, "threshold": 0.0}, "name": "re_lu_15", "inbound_nodes": [[["add_4", 0, 0, {}]]]}, {"class_name": "Conv1D", "config": {"name": "conv1d_18", "trainable": true, "dtype": "float32", "filters": 32, "kernel_size": [1], "strides": [1], "padding": "valid", "data_format": "channels_last", "dilation_rate": [1], "activation": "linear", "use_bias": true, "kernel_initializer": {"class_name": "GlorotUniform", "config": {"seed": null}}, "bias_initializer": {"class_name": "Zeros", "config": {}}, "kernel_regularizer": null, "bias_regularizer": null, "activity_regularizer": null, "kernel_constraint": null, "bias_constraint": null}, "name": "conv1d_18", "inbound_nodes": [[["re_lu_15", 0, 0, {}]]]}, {"class_name": "BatchNormalization", "config": {"name": "batch_normalization_18", "trainable": true, "dtype": "float32", "axis": [2], "momentum": 0.99, "epsilon": 0.001, "center": true, "scale": true, "beta_initializer": {"class_name": "Zeros", "config": {}}, "gamma_initializer": {"class_name": "Ones", "config": {}}, "moving_mean_initializer": {"class_name": "Zeros", "config": {}}, "moving_variance_initializer": {"class_name": "Ones", "config": {}}, "beta_regularizer": null, "gamma_regularizer": null, "beta_constraint": null, "gamma_constraint": null}, "name": "batch_normalization_18", "inbound_nodes": [[["conv1d_18", 0, 0, {}]]]}, {"class_name": "ReLU", "config": {"name": "re_lu_16", "trainable": true, "dtype": "float32", "max_value": null, "negative_slope": 0.0, "threshold": 0.0}, "name": "re_lu_16", "inbound_nodes": [[["batch_normalization_18", 0, 0, {}]]]}, {"class_name": "Conv1D", "config": {"name": "conv1d_19", "trainable": true, "dtype": "float32", "filters": 32, "kernel_size": [3], "strides": [1], "padding": "same", "data_format": "channels_last", "dilation_rate": [1], "activation": "linear", "use_bias": true, "kernel_initializer": {"class_name": "GlorotUniform", "config": {"seed": null}}, "bias_initializer": {"class_name": "Zeros", "config": {}}, "kernel_regularizer": null, "bias_regularizer": null, "activity_regularizer": null, "kernel_constraint": null, "bias_constraint": null}, "name": "conv1d_19", "inbound_nodes": [[["re_lu_16", 0, 0, {}]]]}, {"class_name": "BatchNormalization", "config": {"name": "batch_normalization_19", "trainable": true, "dtype": "float32", "axis": [2], "momentum": 0.99, "epsilon": 0.001, "center": true, "scale": true, "beta_initializer": {"class_name": "Zeros", "config": {}}, "gamma_initializer": {"class_name": "Ones", "config": {}}, "moving_mean_initializer": {"class_name": "Zeros", "config": {}}, "moving_variance_initializer": {"class_name": "Ones", "config": {}}, "beta_regularizer": null, "gamma_regularizer": null, "beta_constraint": null, "gamma_constraint": null}, "name": "batch_normalization_19", "inbound_nodes": [[["conv1d_19", 0, 0, {}]]]}, {"class_name": "ReLU", "config": {"name": "re_lu_17", "trainable": true, "dtype": "float32", "max_value": null, "negative_slope": 0.0, "threshold": 0.0}, "name": "re_lu_17", "inbound_nodes": [[["batch_normalization_19", 0, 0, {}]]]}, {"class_name": "Conv1D", "config": {"name": "conv1d_20", "trainable": true, "dtype": "float32", "filters": 64, "kernel_size": [1], "strides": [1], "padding": "valid", "data_format": "channels_last", "dilation_rate": [1], "activation": "linear", "use_bias": true, "kernel_initializer": {"class_name": "GlorotUniform", "config": {"seed": null}}, "bias_initializer": {"class_name": "Zeros", "config": {}}, "kernel_regularizer": null, "bias_regularizer": null, "activity_regularizer": null, "kernel_constraint": null, "bias_constraint": null}, "name": "conv1d_20", "inbound_nodes": [[["re_lu_17", 0, 0, {}]]]}, {"class_name": "BatchNormalization", "config": {"name": "batch_normalization_20", "trainable": true, "dtype": "float32", "axis": [2], "momentum": 0.99, "epsilon": 0.001, "center": true, "scale": true, "beta_initializer": {"class_name": "Zeros", "config": {}}, "gamma_initializer": {"class_name": "Ones", "config": {}}, "moving_mean_initializer": {"class_name": "Zeros", "config": {}}, "moving_variance_initializer": {"class_name": "Ones", "config": {}}, "beta_regularizer": null, "gamma_regularizer": null, "beta_constraint": null, "gamma_constraint": null}, "name": "batch_normalization_20", "inbound_nodes": [[["conv1d_20", 0, 0, {}]]]}, {"class_name": "Add", "config": {"name": "add_5", "trainable": true, "dtype": "float32"}, "name": "add_5", "inbound_nodes": [[["batch_normalization_20", 0, 0, {}], ["re_lu_15", 0, 0, {}]]]}, {"class_name": "ReLU", "config": {"name": "re_lu_18", "trainable": true, "dtype": "float32", "max_value": null, "negative_slope": 0.0, "threshold": 0.0}, "name": "re_lu_18", "inbound_nodes": [[["add_5", 0, 0, {}]]]}, {"class_name": "Conv1D", "config": {"name": "conv1d_21", "trainable": true, "dtype": "float32", "filters": 32, "kernel_size": [1], "strides": [1], "padding": "valid", "data_format": "channels_last", "dilation_rate": [1], "activation": "linear", "use_bias": true, "kernel_initializer": {"class_name": "GlorotUniform", "config": {"seed": null}}, "bias_initializer": {"class_name": "Zeros", "config": {}}, "kernel_regularizer": null, "bias_regularizer": null, "activity_regularizer": null, "kernel_constraint": null, "bias_constraint": null}, "name": "conv1d_21", "inbound_nodes": [[["re_lu_18", 0, 0, {}]]]}, {"class_name": "BatchNormalization", "config": {"name": "batch_normalization_21", "trainable": true, "dtype": "float32", "axis": [2], "momentum": 0.99, "epsilon": 0.001, "center": true, "scale": true, "beta_initializer": {"class_name": "Zeros", "config": {}}, "gamma_initializer": {"class_name": "Ones", "config": {}}, "moving_mean_initializer": {"class_name": "Zeros", "config": {}}, "moving_variance_initializer": {"class_name": "Ones", "config": {}}, "beta_regularizer": null, "gamma_regularizer": null, "beta_constraint": null, "gamma_constraint": null}, "name": "batch_normalization_21", "inbound_nodes": [[["conv1d_21", 0, 0, {}]]]}, {"class_name": "ReLU", "config": {"name": "re_lu_19", "trainable": true, "dtype": "float32", "max_value": null, "negative_slope": 0.0, "threshold": 0.0}, "name": "re_lu_19", "inbound_nodes": [[["batch_normalization_21", 0, 0, {}]]]}, {"class_name": "Conv1D", "config": {"name": "conv1d_22", "trainable": true, "dtype": "float32", "filters": 32, "kernel_size": [3], "strides": [1], "padding": "same", "data_format": "channels_last", "dilation_rate": [1], "activation": "linear", "use_bias": true, "kernel_initializer": {"class_name": "GlorotUniform", "config": {"seed": null}}, "bias_initializer": {"class_name": "Zeros", "config": {}}, "kernel_regularizer": null, "bias_regularizer": null, "activity_regularizer": null, "kernel_constraint": null, "bias_constraint": null}, "name": "conv1d_22", "inbound_nodes": [[["re_lu_19", 0, 0, {}]]]}, {"class_name": "BatchNormalization", "config": {"name": "batch_normalization_22", "trainable": true, "dtype": "float32", "axis": [2], "momentum": 0.99, "epsilon": 0.001, "center": true, "scale": true, "beta_initializer": {"class_name": "Zeros", "config": {}}, "gamma_initializer": {"class_name": "Ones", "config": {}}, "moving_mean_initializer": {"class_name": "Zeros", "config": {}}, "moving_variance_initializer": {"class_name": "Ones", "config": {}}, "beta_regularizer": null, "gamma_regularizer": null, "beta_constraint": null, "gamma_constraint": null}, "name": "batch_normalization_22", "inbound_nodes": [[["conv1d_22", 0, 0, {}]]]}, {"class_name": "ReLU", "config": {"name": "re_lu_20", "trainable": true, "dtype": "float32", "max_value": null, "negative_slope": 0.0, "threshold": 0.0}, "name": "re_lu_20", "inbound_nodes": [[["batch_normalization_22", 0, 0, {}]]]}, {"class_name": "Conv1D", "config": {"name": "conv1d_23", "trainable": true, "dtype": "float32", "filters": 64, "kernel_size": [1], "strides": [1], "padding": "valid", "data_format": "channels_last", "dilation_rate": [1], "activation": "linear", "use_bias": true, "kernel_initializer": {"class_name": "GlorotUniform", "config": {"seed": null}}, "bias_initializer": {"class_name": "Zeros", "config": {}}, "kernel_regularizer": null, "bias_regularizer": null, "activity_regularizer": null, "kernel_constraint": null, "bias_constraint": null}, "name": "conv1d_23", "inbound_nodes": [[["re_lu_20", 0, 0, {}]]]}, {"class_name": "BatchNormalization", "config": {"name": "batch_normalization_23", "trainable": true, "dtype": "float32", "axis": [2], "momentum": 0.99, "epsilon": 0.001, "center": true, "scale": true, "beta_initializer": {"class_name": "Zeros", "config": {}}, "gamma_initializer": {"class_name": "Ones", "config": {}}, "moving_mean_initializer": {"class_name": "Zeros", "config": {}}, "moving_variance_initializer": {"class_name": "Ones", "config": {}}, "beta_regularizer": null, "gamma_regularizer": null, "beta_constraint": null, "gamma_constraint": null}, "name": "batch_normalization_23", "inbound_nodes": [[["conv1d_23", 0, 0, {}]]]}, {"class_name": "Add", "config": {"name": "add_6", "trainable": true, "dtype": "float32"}, "name": "add_6", "inbound_nodes": [[["batch_normalization_23", 0, 0, {}], ["re_lu_18", 0, 0, {}]]]}, {"class_name": "ReLU", "config": {"name": "re_lu_21", "trainable": true, "dtype": "float32", "max_value": null, "negative_slope": 0.0, "threshold": 0.0}, "name": "re_lu_21", "inbound_nodes": [[["add_6", 0, 0, {}]]]}, {"class_name": "Conv1D", "config": {"name": "conv1d_24", "trainable": true, "dtype": "float32", "filters": 32, "kernel_size": [1], "strides": [1], "padding": "valid", "data_format": "channels_last", "dilation_rate": [1], "activation": "linear", "use_bias": true, "kernel_initializer": {"class_name": "GlorotUniform", "config": {"seed": null}}, "bias_initializer": {"class_name": "Zeros", "config": {}}, "kernel_regularizer": null, "bias_regularizer": null, "activity_regularizer": null, "kernel_constraint": null, "bias_constraint": null}, "name": "conv1d_24", "inbound_nodes": [[["re_lu_21", 0, 0, {}]]]}, {"class_name": "BatchNormalization", "config": {"name": "batch_normalization_24", "trainable": true, "dtype": "float32", "axis": [2], "momentum": 0.99, "epsilon": 0.001, "center": true, "scale": true, "beta_initializer": {"class_name": "Zeros", "config": {}}, "gamma_initializer": {"class_name": "Ones", "config": {}}, "moving_mean_initializer": {"class_name": "Zeros", "config": {}}, "moving_variance_initializer": {"class_name": "Ones", "config": {}}, "beta_regularizer": null, "gamma_regularizer": null, "beta_constraint": null, "gamma_constraint": null}, "name": "batch_normalization_24", "inbound_nodes": [[["conv1d_24", 0, 0, {}]]]}, {"class_name": "ReLU", "config": {"name": "re_lu_22", "trainable": true, "dtype": "float32", "max_value": null, "negative_slope": 0.0, "threshold": 0.0}, "name": "re_lu_22", "inbound_nodes": [[["batch_normalization_24", 0, 0, {}]]]}, {"class_name": "Conv1D", "config": {"name": "conv1d_25", "trainable": true, "dtype": "float32", "filters": 32, "kernel_size": [3], "strides": [1], "padding": "same", "data_format": "channels_last", "dilation_rate": [1], "activation": "linear", "use_bias": true, "kernel_initializer": {"class_name": "GlorotUniform", "config": {"seed": null}}, "bias_initializer": {"class_name": "Zeros", "config": {}}, "kernel_regularizer": null, "bias_regularizer": null, "activity_regularizer": null, "kernel_constraint": null, "bias_constraint": null}, "name": "conv1d_25", "inbound_nodes": [[["re_lu_22", 0, 0, {}]]]}, {"class_name": "BatchNormalization", "config": {"name": "batch_normalization_25", "trainable": true, "dtype": "float32", "axis": [2], "momentum": 0.99, "epsilon": 0.001, "center": true, "scale": true, "beta_initializer": {"class_name": "Zeros", "config": {}}, "gamma_initializer": {"class_name": "Ones", "config": {}}, "moving_mean_initializer": {"class_name": "Zeros", "config": {}}, "moving_variance_initializer": {"class_name": "Ones", "config": {}}, "beta_regularizer": null, "gamma_regularizer": null, "beta_constraint": null, "gamma_constraint": null}, "name": "batch_normalization_25", "inbound_nodes": [[["conv1d_25", 0, 0, {}]]]}, {"class_name": "ReLU", "config": {"name": "re_lu_23", "trainable": true, "dtype": "float32", "max_value": null, "negative_slope": 0.0, "threshold": 0.0}, "name": "re_lu_23", "inbound_nodes": [[["batch_normalization_25", 0, 0, {}]]]}, {"class_name": "Conv1D", "config": {"name": "conv1d_26", "trainable": true, "dtype": "float32", "filters": 64, "kernel_size": [1], "strides": [1], "padding": "valid", "data_format": "channels_last", "dilation_rate": [1], "activation": "linear", "use_bias": true, "kernel_initializer": {"class_name": "GlorotUniform", "config": {"seed": null}}, "bias_initializer": {"class_name": "Zeros", "config": {}}, "kernel_regularizer": null, "bias_regularizer": null, "activity_regularizer": null, "kernel_constraint": null, "bias_constraint": null}, "name": "conv1d_26", "inbound_nodes": [[["re_lu_23", 0, 0, {}]]]}, {"class_name": "BatchNormalization", "config": {"name": "batch_normalization_26", "trainable": true, "dtype": "float32", "axis": [2], "momentum": 0.99, "epsilon": 0.001, "center": true, "scale": true, "beta_initializer": {"class_name": "Zeros", "config": {}}, "gamma_initializer": {"class_name": "Ones", "config": {}}, "moving_mean_initializer": {"class_name": "Zeros", "config": {}}, "moving_variance_initializer": {"class_name": "Ones", "config": {}}, "beta_regularizer": null, "gamma_regularizer": null, "beta_constraint": null, "gamma_constraint": null}, "name": "batch_normalization_26", "inbound_nodes": [[["conv1d_26", 0, 0, {}]]]}, {"class_name": "Add", "config": {"name": "add_7", "trainable": true, "dtype": "float32"}, "name": "add_7", "inbound_nodes": [[["batch_normalization_26", 0, 0, {}], ["re_lu_21", 0, 0, {}]]]}, {"class_name": "ReLU", "config": {"name": "re_lu_24", "trainable": true, "dtype": "float32", "max_value": null, "negative_slope": 0.0, "threshold": 0.0}, "name": "re_lu_24", "inbound_nodes": [[["add_7", 0, 0, {}]]]}, {"class_name": "GlobalAveragePooling1D", "config": {"name": "global_average_pooling1d", "trainable": true, "dtype": "float32", "data_format": "channels_last"}, "name": "global_average_pooling1d", "inbound_nodes": [[["re_lu_24", 0, 0, {}]]]}, {"class_name": "Dense", "config": {"name": "dense", "trainable": true, "dtype": "float32", "units": 32, "activation": "relu", "use_bias": true, "kernel_initializer": {"class_name": "GlorotUniform", "config": {"seed": null}}, "bias_initializer": {"class_name": "Zeros", "config": {}}, "kernel_regularizer": null, "bias_regularizer": null, "activity_regularizer": null, "kernel_constraint": null, "bias_constraint": null}, "name": "dense", "inbound_nodes": [[["global_average_pooling1d", 0, 0, {}]]]}, {"class_name": "Dense", "config": {"name": "dense_1", "trainable": true, "dtype": "float32", "units": 64, "activation": "relu", "use_bias": true, "kernel_initializer": {"class_name": "GlorotUniform", "config": {"seed": null}}, "bias_initializer": {"class_name": "Zeros", "config": {}}, "kernel_regularizer": null, "bias_regularizer": null, "activity_regularizer": null, "kernel_constraint": null, "bias_constraint": null}, "name": "dense_1", "inbound_nodes": [[["dense", 0, 0, {}]]]}, {"class_name": "Dense", "config": {"name": "dense_2", "trainable": true, "dtype": "float32", "units": 5, "activation": "sigmoid", "use_bias": true, "kernel_initializer": {"class_name": "GlorotUniform", "config": {"seed": null}}, "bias_initializer": {"class_name": "Zeros", "config": {}}, "kernel_regularizer": null, "bias_regularizer": null, "activity_regularizer": null, "kernel_constraint": null, "bias_constraint": null}, "name": "dense_2", "inbound_nodes": [[["dense_1", 0, 0, {}]]]}], "input_layers": [["audio", 0, 0]], "output_layers": [["dense_2", 0, 0]]}}, "training_config": {"loss": "binary_crossentropy", "metrics": ["accuracy"], "weighted_metrics": null, "loss_weights": null, "sample_weight_mode": null, "optimizer_config": {"class_name": "Adam", "config": {"name": "Adam", "learning_rate": 6.25000029685907e-05, "decay": 0.0, "beta_1": 0.8999999761581421, "beta_2": 0.9990000128746033, "epsilon": 1e-07, "amsgrad": false}}}}, "weightsManifest": [{"paths": ["group1-shard1of1.bin"], "weights": [{"name": "batch_normalization/gamma", "shape": [64], "dtype": "float32", "quantization": {"min": 0.9063536524772644, "scale": 0.0009328914623634488, "dtype": "uint8"}}, {"name": "batch_normalization/beta", "shape": [64], "dtype": "float32", "quantization": {"min": -0.19684915916592466, "scale": 0.0012303072447870291, "dtype": "uint8"}}, {"name": "batch_normalization/moving_mean", "shape": [64], "dtype": "float32", "quantization": {"min": -3.72482089435353, "scale": 0.0248321392956902, "dtype": "uint8"}}, {"name": "batch_normalization/moving_variance", "shape": [64], "dtype": "float32", "quantization": {"min": 0.7326986193656921, "scale": 0.023135754875108307, "dtype": "uint8"}}, {"name": "batch_normalization_1/gamma", "shape": [16], "dtype": "float32", "quantization": {"min": 0.8847079873085022, "scale": 0.0008464539752287023, "dtype": "uint8"}}, {"name": "batch_normalization_1/beta", "shape": [16], "dtype": "float32", "quantization": {"min": -0.08251438187617881, "scale": 0.0010857155510023528, "dtype": "uint8"}}, {"name": "batch_normalization_1/moving_mean", "shape": [16], "dtype": "float32", "quantization": {"min": -1.0871334819232716, "scale": 0.00842739133273854, "dtype": "uint8"}}, {"name": "batch_normalization_1/moving_variance", "shape": [16], "dtype": "float32", "quantization": {"min": 1.5662009716033936, "scale": 0.007811837102852616, "dtype": "uint8"}}, {"name": "batch_normalization_10/gamma", "shape": [32], "dtype": "float32", "quantization": {"min": 0.8849082589149475, "scale": 0.0008296884742437624, "dtype": "uint8"}}, {"name": "batch_normalization_10/beta", "shape": [32], "dtype": "float32", "quantization": {"min": -0.1105524950167712, "scale": 0.0007370166334451413, "dtype": "uint8"}}, {"name": "batch_normalization_10/moving_mean", "shape": [32], "dtype": "float32", "quantization": {"min": -0.5044447814717012, "scale": 0.003910424662571328, "dtype": "uint8"}}, {"name": "batch_normalization_10/moving_variance", "shape": [32], "dtype": "float32", "quantization": {"min": 0.103775754570961, "scale": 0.0019561502863379085, "dtype": "uint8"}}, {"name": "batch_normalization_11/gamma", "shape": [16], "dtype": "float32", "quantization": {"min": 0.9179207682609558, "scale": 0.0007613362050523945, "dtype": "uint8"}}, {"name": "batch_normalization_11/beta", "shape": [16], "dtype": "float32", "quantization": {"min": -0.0768433832654766, "scale": 0.000768433832654766, "dtype": "uint8"}}, {"name": "batch_normalization_11/moving_mean", "shape": [16], "dtype": "float32", "quantization": {"min": -2.755811004077687, "scale": 0.018372073360517913, "dtype": "uint8"}}, {"name": "batch_normalization_11/moving_variance", "shape": [16], "dtype": "float32", "quantization": {"min": 1.1256189346313477, "scale": 0.023297979317459406, "dtype": "uint8"}}, {"name": "batch_normalization_12/gamma", "shape": [16], "dtype": "float32", "quantization": {"min": 0.8661712408065796, "scale": 0.0008357333201988071, "dtype": "uint8"}}, {"name": "batch_normalization_12/beta", "shape": [16], "dtype": "float32", "quantization": {"min": -0.07983013309684454, "scale": 0.0008677188380091798, "dtype": "uint8"}}, {"name": "batch_normalization_12/moving_mean", "shape": [16], "dtype": "float32", "quantization": {"min": -0.6506286158281215, "scale": 0.0049666306551764995, "dtype": "uint8"}}, {"name": "batch_normalization_12/moving_variance", "shape": [16], "dtype": "float32", "quantization": {"min": 0.3222964406013489, "scale": 0.0025075559522591386, "dtype": "uint8"}}, {"name": "batch_normalization_13/gamma", "shape": [32], "dtype": "float32", "quantization": {"min": 0.891338586807251, "scale": 0.0009346573960547353, "dtype": "uint8"}}, {"name": "batch_normalization_13/beta", "shape": [32], "dtype": "float32", "quantization": {"min": -0.145917889826438, "scale": 0.0007973655181772568, "dtype": "uint8"}}, {"name": "batch_normalization_13/moving_mean", "shape": [32], "dtype": "float32", "quantization": {"min": -0.4003336371160021, "scale": 0.0034811620618782793, "dtype": "uint8"}}, {"name": "batch_normalization_13/moving_variance", "shape": [32], "dtype": "float32", "quantization": {"min": 0.12561827898025513, "scale": 0.002034029539893655, "dtype": "uint8"}}, {"name": "batch_normalization_14/gamma", "shape": [32], "dtype": "float32", "quantization": {"min": 0.9085045456886292, "scale": 0.0006560005393682741, "dtype": "uint8"}}, {"name": "batch_normalization_14/beta", "shape": [32], "dtype": "float32", "quantization": {"min": -0.08262587382512934, "scale": 0.0007869130840488509, "dtype": "uint8"}}, {"name": "batch_normalization_14/moving_mean", "shape": [32], "dtype": "float32", "quantization": {"min": -2.250257286370969, "scale": 0.020456884421554265, "dtype": "uint8"}}, {"name": "batch_normalization_14/moving_variance", "shape": [32], "dtype": "float32", "quantization": {"min": 1.8785232305526733, "scale": 0.032326094776976344, "dtype": "uint8"}}, {"name": "batch_normalization_15/gamma", "shape": [32], "dtype": "float32", "quantization": {"min": 0.8912798166275024, "scale": 0.0006727312125411688, "dtype": "uint8"}}, {"name": "batch_normalization_15/beta", "shape": [32], "dtype": "float32", "quantization": {"min": -0.05949187046464752, "scale": 0.000613318252212861, "dtype": "uint8"}}, {"name": "batch_normalization_15/moving_mean", "shape": [32], "dtype": "float32", "quantization": {"min": -1.4053342108633005, "scale": 0.00949550142475203, "dtype": "uint8"}}, {"name": "batch_normalization_15/moving_variance", "shape": [32], "dtype": "float32", "quantization": {"min": 0.5385200381278992, "scale": 0.01066985808166803, "dtype": "uint8"}}, {"name": "batch_normalization_16/gamma", "shape": [64], "dtype": "float32", "quantization": {"min": 0.9202529191970825, "scale": 0.0007388516968371821, "dtype": "uint8"}}, {"name": "batch_normalization_16/beta", "shape": [64], "dtype": "float32", "quantization": {"min": -0.045713177148033586, "scale": 0.0005442044898575427, "dtype": "uint8"}}, {"name": "batch_normalization_16/moving_mean", "shape": [64], "dtype": "float32", "quantization": {"min": -0.800890139504975, "scale": 0.005167033158096613, "dtype": "uint8"}}, {"name": "batch_normalization_16/moving_variance", "shape": [64], "dtype": "float32", "quantization": {"min": 0.13134756684303284, "scale": 0.0027389882826337627, "dtype": "uint8"}}, {"name": "batch_normalization_17/gamma", "shape": [64], "dtype": "float32", "quantization": {"min": 0.9404044151306152, "scale": 0.0005591719758276846, "dtype": "uint8"}}, {"name": "batch_normalization_17/beta", "shape": [64], "dtype": "float32", "quantization": {"min": -0.045713177148033586, "scale": 0.0005442044898575427, "dtype": "uint8"}}, {"name": "batch_normalization_17/moving_mean", "shape": [64], "dtype": "float32", "quantization": {"min": -2.298832033194748, "scale": 0.016420228808533912, "dtype": "uint8"}}, {"name": "batch_normalization_17/moving_variance", "shape": [64], "dtype": "float32", "quantization": {"min": 1.2502479553222656, "scale": 0.018245680191937615, "dtype": "uint8"}}, {"name": "batch_normalization_18/gamma", "shape": [32], "dtype": "float32", "quantization": {"min": 0.9222878217697144, "scale": 0.0005766508626002891, "dtype": "uint8"}}, {"name": "batch_normalization_18/beta", "shape": [32], "dtype": "float32", "quantization": {"min": -0.059992821514606484, "scale": 0.0005881649168098675, "dtype": "uint8"}}, {"name": "batch_normalization_18/moving_mean", "shape": [32], "dtype": "float32", "quantization": {"min": -1.8667219966065651, "scale": 0.01181469618105421, "dtype": "uint8"}}, {"name": "batch_normalization_18/moving_variance", "shape": [32], "dtype": "float32", "quantization": {"min": 1.0282148122787476, "scale": 0.010763107094110227, "dtype": "uint8"}}, {"name": "batch_normalization_19/gamma", "shape": [32], "dtype": "float32", "quantization": {"min": 0.9607405662536621, "scale": 0.0004581175598443723, "dtype": "uint8"}}, {"name": "batch_normalization_19/beta", "shape": [32], "dtype": "float32", "quantization": {"min": -0.05521195546961298, "scale": 0.000569195417212505, "dtype": "uint8"}}, {"name": "batch_normalization_19/moving_mean", "shape": [32], "dtype": "float32", "quantization": {"min": -1.076396152084949, "scale": 0.007580254592147528, "dtype": "uint8"}}, {"name": "batch_normalization_19/moving_variance", "shape": [32], "dtype": "float32", "quantization": {"min": 0.4521622359752655, "scale": 0.0037892595225689457, "dtype": "uint8"}}, {"name": "batch_normalization_2/gamma", "shape": [16], "dtype": "float32", "quantization": {"min": 0.8824337124824524, "scale": 0.0008207753592846441, "dtype": "uint8"}}, {"name": "batch_normalization_2/beta", "shape": [16], "dtype": "float32", "quantization": {"min": -0.06495179694657233, "scale": 0.0008897506431037304, "dtype": "uint8"}}, {"name": "batch_normalization_2/moving_mean", "shape": [16], "dtype": "float32", "quantization": {"min": -0.752574361071867, "scale": 0.005414204036488252, "dtype": "uint8"}}, {"name": "batch_normalization_2/moving_variance", "shape": [16], "dtype": "float32", "quantization": {"min": 0.3957420587539673, "scale": 0.0035981234382180607, "dtype": "uint8"}}, {"name": "batch_normalization_20/gamma", "shape": [64], "dtype": "float32", "quantization": {"min": 0.9336692690849304, "scale": 0.0006449215552386115, "dtype": "uint8"}}, {"name": "batch_normalization_20/beta", "shape": [64], "dtype": "float32", "quantization": {"min": -0.05260952715488041, "scale": 0.0005010431157607658, "dtype": "uint8"}}, {"name": "batch_normalization_20/moving_mean", "shape": [64], "dtype": "float32", "quantization": {"min": -0.801963301265941, "scale": 0.005728309294756721, "dtype": "uint8"}}, {"name": "batch_normalization_20/moving_variance", "shape": [64], "dtype": "float32", "quantization": {"min": 0.15318553149700165, "scale": 0.0026834376302419926, "dtype": "uint8"}}, {"name": "batch_normalization_21/gamma", "shape": [32], "dtype": "float32", "quantization": {"min": 0.9219363927841187, "scale": 0.0006946245829264323, "dtype": "uint8"}}, {"name": "batch_normalization_21/beta", "shape": [32], "dtype": "float32", "quantization": {"min": -0.040483015746462576, "scale": 0.0005701833203727123, "dtype": "uint8"}}, {"name": "batch_normalization_21/moving_mean", "shape": [32], "dtype": "float32", "quantization": {"min": -2.3216165206011605, "scale": 0.01612233694861917, "dtype": "uint8"}}, {"name": "batch_normalization_21/moving_variance", "shape": [32], "dtype": "float32", "quantization": {"min": 1.2493058443069458, "scale": 0.029211836702683392, "dtype": "uint8"}}, {"name": "batch_normalization_22/gamma", "shape": [32], "dtype": "float32", "quantization": {"min": 0.925441563129425, "scale": 0.0007081707318623861, "dtype": "uint8"}}, {"name": "batch_normalization_22/beta", "shape": [32], "dtype": "float32", "quantization": {"min": -0.08269560477312873, "scale": 0.0005742750331467273, "dtype": "uint8"}}, {"name": "batch_normalization_22/moving_mean", "shape": [32], "dtype": "float32", "quantization": {"min": -1.202655646380256, "scale": 0.00911102762409285, "dtype": "uint8"}}, {"name": "batch_normalization_22/moving_variance", "shape": [32], "dtype": "float32", "quantization": {"min": 0.38273677229881287, "scale": 0.005251087511287016, "dtype": "uint8"}}, {"name": "batch_normalization_23/gamma", "shape": [64], "dtype": "float32", "quantization": {"min": 0.9536476135253906, "scale": 0.0006319625704896216, "dtype": "uint8"}}, {"name": "batch_normalization_23/beta", "shape": [64], "dtype": "float32", "quantization": {"min": -0.04499761907785547, "scale": 0.0004128221933748208, "dtype": "uint8"}}, {"name": "batch_normalization_23/moving_mean", "shape": [64], "dtype": "float32", "quantization": {"min": -0.6654784261011609, "scale": 0.005239987607095755, "dtype": "uint8"}}, {"name": "batch_normalization_23/moving_variance", "shape": [64], "dtype": "float32", "quantization": {"min": 0.15555095672607422, "scale": 0.002653037566764682, "dtype": "uint8"}}, {"name": "batch_normalization_24/gamma", "shape": [32], "dtype": "float32", "quantization": {"min": 0.9180902242660522, "scale": 0.0005698297538009344, "dtype": "uint8"}}, {"name": "batch_normalization_24/beta", "shape": [32], "dtype": "float32", "quantization": {"min": -0.09083856531217986, "scale": 0.0007325690750982247, "dtype": "uint8"}}, {"name": "batch_normalization_24/moving_mean", "shape": [32], "dtype": "float32", "quantization": {"min": -2.710753063127106, "scale": 0.021860911799412148, "dtype": "uint8"}}, {"name": "batch_normalization_24/moving_variance", "shape": [32], "dtype": "float32", "quantization": {"min": 2.056471824645996, "scale": 0.03968026030297373, "dtype": "uint8"}}, {"name": "batch_normalization_25/gamma", "shape": [32], "dtype": "float32", "quantization": {"min": 0.8838353753089905, "scale": 0.0008359864646313237, "dtype": "uint8"}}, {"name": "batch_normalization_25/beta", "shape": [32], "dtype": "float32", "quantization": {"min": -0.07134702641005611, "scale": 0.0005707762112804488, "dtype": "uint8"}}, {"name": "batch_normalization_25/moving_mean", "shape": [32], "dtype": "float32", "quantization": {"min": -1.088123297691345, "scale": 0.00788495143254598, "dtype": "uint8"}}, {"name": "batch_normalization_25/moving_variance", "shape": [32], "dtype": "float32", "quantization": {"min": 0.4002995193004608, "scale": 0.005522529868518605, "dtype": "uint8"}}, {"name": "batch_normalization_26/gamma", "shape": [64], "dtype": "float32", "quantization": {"min": 0.950393557548523, "scale": 0.000772253204794491, "dtype": "uint8"}}, {"name": "batch_normalization_26/beta", "shape": [64], "dtype": "float32", "quantization": {"min": -0.04045910882014855, "scale": 0.0003612420430370406, "dtype": "uint8"}}, {"name": "batch_normalization_26/moving_mean", "shape": [64], "dtype": "float32", "quantization": {"min": -0.724738328597125, "scale": 0.0050681001999798945, "dtype": "uint8"}}, {"name": "batch_normalization_26/moving_variance", "shape": [64], "dtype": "float32", "quantization": {"min": 0.1448308378458023, "scale": 0.0025801199908350027, "dtype": "uint8"}}, {"name": "batch_normalization_3/gamma", "shape": [32], "dtype": "float32", "quantization": {"min": 0.9293939471244812, "scale": 0.0006319127830804563, "dtype": "uint8"}}, {"name": "batch_normalization_3/beta", "shape": [32], "dtype": "float32", "quantization": {"min": -0.07313504560905344, "scale": 0.0006250858599064397, "dtype": "uint8"}}, {"name": "batch_normalization_3/moving_mean", "shape": [32], "dtype": "float32", "quantization": {"min": -0.5528456538331274, "scale": 0.00507197847553328, "dtype": "uint8"}}, {"name": "batch_normalization_3/moving_variance", "shape": [32], "dtype": "float32", "quantization": {"min": 0.12923648953437805, "scale": 0.003033626196431179, "dtype": "uint8"}}, {"name": "batch_normalization_4/gamma", "shape": [32], "dtype": "float32", "quantization": {"min": 0.9255322813987732, "scale": 0.0008259041636597877, "dtype": "uint8"}}, {"name": "batch_normalization_4/beta", "shape": [32], "dtype": "float32", "quantization": {"min": -0.07313504560905344, "scale": 0.0006250858599064397, "dtype": "uint8"}}, {"name": "batch_normalization_4/moving_mean", "shape": [32], "dtype": "float32", "quantization": {"min": -1.350431162469527, "scale": 0.00918660654741175, "dtype": "uint8"}}, {"name": "batch_normalization_4/moving_variance", "shape": [32], "dtype": "float32", "quantization": {"min": 1.0377132892608643, "scale": 0.008216335259231867, "dtype": "uint8"}}, {"name": "batch_normalization_5/gamma", "shape": [16], "dtype": "float32", "quantization": {"min": 0.9269348382949829, "scale": 0.0007452310300340839, "dtype": "uint8"}}, {"name": "batch_normalization_5/beta", "shape": [16], "dtype": "float32", "quantization": {"min": -0.014776411009769813, "scale": 0.00046176284405530666, "dtype": "uint8"}}, {"name": "batch_normalization_5/moving_mean", "shape": [16], "dtype": "float32", "quantization": {"min": -1.4765844298344033, "scale": 0.010183340895409678, "dtype": "uint8"}}, {"name": "batch_normalization_5/moving_variance", "shape": [16], "dtype": "float32", "quantization": {"min": 0.9050576090812683, "scale": 0.008977722887899362, "dtype": "uint8"}}, {"name": "batch_normalization_6/gamma", "shape": [16], "dtype": "float32", "quantization": {"min": 0.9425007700920105, "scale": 0.0005235884703841864, "dtype": "uint8"}}, {"name": "batch_normalization_6/beta", "shape": [16], "dtype": "float32", "quantization": {"min": -0.07553746630163753, "scale": 0.0005473729442147647, "dtype": "uint8"}}, {"name": "batch_normalization_6/moving_mean", "shape": [16], "dtype": "float32", "quantization": {"min": -0.43179107553818646, "scale": 0.004642914790733188, "dtype": "uint8"}}, {"name": "batch_normalization_6/moving_variance", "shape": [16], "dtype": "float32", "quantization": {"min": 0.2454986870288849, "scale": 0.008960141270768409, "dtype": "uint8"}}, {"name": "batch_normalization_7/gamma", "shape": [32], "dtype": "float32", "quantization": {"min": 0.9113568067550659, "scale": 0.0007029453913370769, "dtype": "uint8"}}, {"name": "batch_normalization_7/beta", "shape": [32], "dtype": "float32", "quantization": {"min": -0.15677128819858327, "scale": 0.0009331624297534718, "dtype": "uint8"}}, {"name": "batch_normalization_7/moving_mean", "shape": [32], "dtype": "float32", "quantization": {"min": -0.4373376923448899, "scale": 0.0035847351831548354, "dtype": "uint8"}}, {"name": "batch_normalization_7/moving_variance", "shape": [32], "dtype": "float32", "quantization": {"min": 0.13196714222431183, "scale": 0.0029137543019126444, "dtype": "uint8"}}, {"name": "batch_normalization_8/gamma", "shape": [16], "dtype": "float32", "quantization": {"min": 0.9458414316177368, "scale": 0.00044794783872716565, "dtype": "uint8"}}, {"name": "batch_normalization_8/beta", "shape": [16], "dtype": "float32", "quantization": {"min": -0.0760879148455227, "scale": 0.0006087033187641817, "dtype": "uint8"}}, {"name": "batch_normalization_8/moving_mean", "shape": [16], "dtype": "float32", "quantization": {"min": -1.3138220029718737, "scale": 0.010184666689704447, "dtype": "uint8"}}, {"name": "batch_normalization_8/moving_variance", "shape": [16], "dtype": "float32", "quantization": {"min": 0.8600876927375793, "scale": 0.0076991565087262325, "dtype": "uint8"}}, {"name": "batch_normalization_9/gamma", "shape": [16], "dtype": "float32", "quantization": {"min": 0.9053581953048706, "scale": 0.0008095484153897155, "dtype": "uint8"}}, {"name": "batch_normalization_9/beta", "shape": [16], "dtype": "float32", "quantization": {"min": -0.0854806628297357, "scale": 0.0008997964508393231, "dtype": "uint8"}}, {"name": "batch_normalization_9/moving_mean", "shape": [16], "dtype": "float32", "quantization": {"min": -0.6283960305008234, "scale": 0.004002522487266391, "dtype": "uint8"}}, {"name": "batch_normalization_9/moving_variance", "shape": [16], "dtype": "float32", "quantization": {"min": 0.2984873950481415, "scale": 0.003814922243941064, "dtype": "uint8"}}, {"name": "conv1d/kernel", "shape": [7, 257, 64], "dtype": "float32", "quantization": {"min": -0.1803212334127987, "scale": 0.00187834618138332, "dtype": "uint8"}}, {"name": "conv1d/bias", "shape": [64], "dtype": "float32", "quantization": {"min": -0.0004842980326536824, "scale": 4.484241043089652e-06, "dtype": "uint8"}}, {"name": "conv1d_1/kernel", "shape": [1, 64, 16], "dtype": "float32", "quantization": {"min": -0.39312268705929027, "scale": 0.002978202174691593, "dtype": "uint8"}}, {"name": "conv1d_1/bias", "shape": [16], "dtype": "float32", "quantization": {"min": -0.00022194539607666873, "scale": 3.893778878538048e-06, "dtype": "uint8"}}, {"name": "conv1d_10/kernel", "shape": [1, 16, 32], "dtype": "float32", "quantization": {"min": -0.49086284836133326, "scale": 0.003582940498987834, "dtype": "uint8"}}, {"name": "conv1d_10/bias", "shape": [32], "dtype": "float32", "quantization": {"min": -0.0009593895914982639, "scale": 6.353573453630887e-06, "dtype": "uint8"}}, {"name": "conv1d_11/kernel", "shape": [1, 32, 16], "dtype": "float32", "quantization": {"min": -0.4244161251713248, "scale": 0.0032900474819482542, "dtype": "uint8"}}, {"name": "conv1d_11/bias", "shape": [16], "dtype": "float32", "quantization": {"min": -0.00019301068192968766, "scale": 2.8383923813189363e-06, "dtype": "uint8"}}, {"name": "conv1d_12/kernel", "shape": [3, 16, 16], "dtype": "float32", "quantization": {"min": -0.3191165884335836, "scale": 0.0026816520036435595, "dtype": "uint8"}}, {"name": "conv1d_12/bias", "shape": [16], "dtype": "float32", "quantization": {"min": -0.001252068691731741, "scale": 7.408690483619769e-06, "dtype": "uint8"}}, {"name": "conv1d_13/kernel", "shape": [1, 16, 32], "dtype": "float32", "quantization": {"min": -0.41983287334442143, "scale": 0.0035280073390287514, "dtype": "uint8"}}, {"name": "conv1d_13/bias", "shape": [32], "dtype": "float32", "quantization": {"min": -0.0005546607570174862, "scale": 4.201975431950653e-06, "dtype": "uint8"}}, {"name": "conv1d_14/kernel", "shape": [1, 32, 32], "dtype": "float32", "quantization": {"min": -0.41295864617123323, "scale": 0.0031523560776430017, "dtype": "uint8"}}, {"name": "conv1d_14/bias", "shape": [32], "dtype": "float32", "quantization": {"min": -0.00011831646492389745, "scale": 1.12682347546569e-06, "dtype": "uint8"}}, {"name": "conv1d_15/kernel", "shape": [3, 32, 32], "dtype": "float32", "quantization": {"min": -0.286334386993857, "scale": 0.0021691999014686134, "dtype": "uint8"}}, {"name": "conv1d_15/bias", "shape": [32], "dtype": "float32", "quantization": {"min": -0.000595161634698218, "scale": 3.3816001971489657e-06, "dtype": "uint8"}}, {"name": "conv1d_16/kernel", "shape": [1, 32, 64], "dtype": "float32", "quantization": {"min": -0.34166283700980393, "scale": 0.0026692409141390932, "dtype": "uint8"}}, {"name": "conv1d_16/bias", "shape": [64], "dtype": "float32", "quantization": {"min": -0.00043236783331296606, "scale": 4.699650362097457e-06, "dtype": "uint8"}}, {"name": "conv1d_17/kernel", "shape": [1, 32, 64], "dtype": "float32", "quantization": {"min": -0.35181654200834384, "scale": 0.002837230177486644, "dtype": "uint8"}}, {"name": "conv1d_17/bias", "shape": [64], "dtype": "float32", "quantization": {"min": -0.0001904556808500167, "scale": 1.7634785263890437e-06, "dtype": "uint8"}}, {"name": "conv1d_18/kernel", "shape": [1, 64, 32], "dtype": "float32", "quantization": {"min": -0.3573901580829246, "scale": 0.0026871440457362753, "dtype": "uint8"}}, {"name": "conv1d_18/bias", "shape": [32], "dtype": "float32", "quantization": {"min": -0.00027379974832429606, "scale": 2.5351828548545933e-06, "dtype": "uint8"}}, {"name": "conv1d_19/kernel", "shape": [3, 32, 32], "dtype": "float32", "quantization": {"min": -0.28523076375325523, "scale": 0.0022283653418223065, "dtype": "uint8"}}, {"name": "conv1d_19/bias", "shape": [32], "dtype": "float32", "quantization": {"min": -0.00036297766195025807, "scale": 2.7708218469485347e-06, "dtype": "uint8"}}, {"name": "conv1d_2/kernel", "shape": [3, 16, 16], "dtype": "float32", "quantization": {"min": -0.34853460321239393, "scale": 0.002660569490170946, "dtype": "uint8"}}, {"name": "conv1d_2/bias", "shape": [16], "dtype": "float32", "quantization": {"min": -0.0009983707055011214, "scale": 9.244173199084459e-06, "dtype": "uint8"}}, {"name": "conv1d_20/kernel", "shape": [1, 32, 64], "dtype": "float32", "quantization": {"min": -0.3458673463148229, "scale": 0.0027669387705185834, "dtype": "uint8"}}, {"name": "conv1d_20/bias", "shape": [64], "dtype": "float32", "quantization": {"min": -0.00036367296193288095, "scale": 3.996406175086604e-06, "dtype": "uint8"}}, {"name": "conv1d_21/kernel", "shape": [1, 64, 32], "dtype": "float32", "quantization": {"min": -0.3560696840286255, "scale": 0.002697497606277466, "dtype": "uint8"}}, {"name": "conv1d_21/bias", "shape": [32], "dtype": "float32", "quantization": {"min": -0.00016492018767166883, "scale": 1.9402375020196333e-06, "dtype": "uint8"}}, {"name": "conv1d_22/kernel", "shape": [3, 32, 32], "dtype": "float32", "quantization": {"min": -0.2888551576464784, "scale": 0.0022219627511267568, "dtype": "uint8"}}, {"name": "conv1d_22/bias", "shape": [32], "dtype": "float32", "quantization": {"min": -0.00045463113518267434, "scale": 2.444253414960615e-06, "dtype": "uint8"}}, {"name": "conv1d_23/kernel", "shape": [1, 32, 64], "dtype": "float32", "quantization": {"min": -0.3472032859044916, "scale": 0.0026914983403448964, "dtype": "uint8"}}, {"name": "conv1d_23/bias", "shape": [64], "dtype": "float32", "quantization": {"min": -0.0002790878956005269, "scale": 2.3651516576315843e-06, "dtype": "uint8"}}, {"name": "conv1d_24/kernel", "shape": [1, 64, 32], "dtype": "float32", "quantization": {"min": -0.3354332269406786, "scale": 0.0026205720854740517, "dtype": "uint8"}}, {"name": "conv1d_24/bias", "shape": [32], "dtype": "float32", "quantization": {"min": -0.0001503551594556912, "scale": 1.0816917946452604e-06, "dtype": "uint8"}}, {"name": "conv1d_25/kernel", "shape": [3, 32, 32], "dtype": "float32", "quantization": {"min": -0.29255637818691776, "scale": 0.002199672016442991, "dtype": "uint8"}}, {"name": "conv1d_25/bias", "shape": [32], "dtype": "float32", "quantization": {"min": -0.0002254976981716669, "scale": 1.803981585373335e-06, "dtype": "uint8"}}, {"name": "conv1d_26/kernel", "shape": [1, 32, 64], "dtype": "float32", "quantization": {"min": -0.3397661070028941, "scale": 0.0028551773697722193, "dtype": "uint8"}}, {"name": "conv1d_26/bias", "shape": [64], "dtype": "float32", "quantization": {"min": -0.000574373454768576, "scale": 4.632043990069161e-06, "dtype": "uint8"}}, {"name": "conv1d_3/kernel", "shape": [1, 16, 32], "dtype": "float32", "quantization": {"min": -0.42777588788200827, "scale": 0.0033419991240781896, "dtype": "uint8"}}, {"name": "conv1d_3/bias", "shape": [32], "dtype": "float32", "quantization": {"min": -0.0012453147004741955, "scale": 9.224553336845894e-06, "dtype": "uint8"}}, {"name": "conv1d_4/kernel", "shape": [1, 64, 32], "dtype": "float32", "quantization": {"min": -0.3831131962000155, "scale": 0.0030166393401576024, "dtype": "uint8"}}, {"name": "conv1d_4/bias", "shape": [32], "dtype": "float32", "quantization": {"min": -0.0005571817917584934, "scale": 3.7145452783899565e-06, "dtype": "uint8"}}, {"name": "conv1d_5/kernel", "shape": [1, 32, 16], "dtype": "float32", "quantization": {"min": -0.4467710812886556, "scale": 0.0032850814800636442, "dtype": "uint8"}}, {"name": "conv1d_5/bias", "shape": [16], "dtype": "float32", "quantization": {"min": -0.0004887990235789295, "scale": 3.442246644922039e-06, "dtype": "uint8"}}, {"name": "conv1d_6/kernel", "shape": [3, 16, 16], "dtype": "float32", "quantization": {"min": -0.351567482363944, "scale": 0.0025661860026565254, "dtype": "uint8"}}, {"name": "conv1d_6/bias", "shape": [16], "dtype": "float32", "quantization": {"min": -0.0011527333545553334, "scale": 1.280814838394815e-05, "dtype": "uint8"}}, {"name": "conv1d_7/kernel", "shape": [1, 16, 32], "dtype": "float32", "quantization": {"min": -0.434172433497859, "scale": 0.0035013905927246693, "dtype": "uint8"}}, {"name": "conv1d_7/bias", "shape": [32], "dtype": "float32", "quantization": {"min": -0.0009587015219343206, "scale": 8.056315310372442e-06, "dtype": "uint8"}}, {"name": "conv1d_8/kernel", "shape": [1, 32, 16], "dtype": "float32", "quantization": {"min": -0.42000310701482435, "scale": 0.003414659406624588, "dtype": "uint8"}}, {"name": "conv1d_8/bias", "shape": [16], "dtype": "float32", "quantization": {"min": -0.0007641227703596301, "scale": 3.918578309536565e-06, "dtype": "uint8"}}, {"name": "conv1d_9/kernel", "shape": [3, 16, 16], "dtype": "float32", "quantization": {"min": -0.32922965989393344, "scale": 0.0026129338086820116, "dtype": "uint8"}}, {"name": "conv1d_9/bias", "shape": [16], "dtype": "float32", "quantization": {"min": -0.0002697977794370815, "scale": 2.594209417664245e-06, "dtype": "uint8"}}, {"name": "dense/kernel", "shape": [64, 32], "dtype": "float32", "quantization": {"min": -0.3770535349845886, "scale": 0.00267413854598999, "dtype": "uint8"}}, {"name": "dense/bias", "shape": [32], "dtype": "float32", "quantization": {"min": -0.04646155796214646, "scale": 0.00032490599973528995, "dtype": "uint8"}}, {"name": "dense_1/kernel", "shape": [32, 64], "dtype": "float32", "quantization": {"min": -0.3932641122855392, "scale": 0.003072375877230775, "dtype": "uint8"}}, {"name": "dense_1/bias", "shape": [64], "dtype": "float32", "quantization": {"min": -0.06855189192528818, "scale": 0.0006591528069739248, "dtype": "uint8"}}, {"name": "dense_2/kernel", "shape": [64, 5], "dtype": "float32", "quantization": {"min": -0.508854988042046, "scale": 0.0032618909489874745, "dtype": "uint8"}}, {"name": "dense_2/bias", "shape": [5], "dtype": "float32", "quantization": {"min": -0.04327947646379471, "scale": 0.000144537890731704, "dtype": "uint8"}}]}]}